…
D((2, 2)))...: model.add(layers.Conv2D(64, (3, 3), activation='relu'))...: model.add(layers.MaxPooling2D((2, 2)))...: model.add(layers.Conv2D(128, (3, 3), activation='relu'))...: model.add(layers.MaxPooling2D((2, 2)))...: model.add(layers.Flatten())...: model.add(layers.Dense(300, activation='relu'))...: model.add(layers.Dense(10, activation='softmax'))In [10]: model.summary()_________________________________________________________________Layer (type)                 Output Shape              Param #=================================================================conv2d_1 (Conv2D)            (None, 146, 146, 32)      2432_________________________________________________________________max_pooling2d_1 (MaxPooling2 (None, 73, 73, 32)        0_________________________________________________________________conv2d_2 (Conv2D)            (None, 71, 71, 64)        18496_________________________________________________________________max_pooling2d_2 (MaxPooling2 (None, 35, 35, 64)        0_________________________________________________________________conv2d_3 (Conv2D)            (None, 33, 33, 64)        36928_________________________________________________________________max_pooling2d_3 (MaxPooling2 (None, 16, 16, 64)        0_________________________________________________________________conv2d_4 (Conv2D)            (None, 14, 14, 128)       73856_________________________________________________________________max_pooling2d_4 (MaxPooling2 (None, 7, 7, 128)         0_________________________________________________________________flatten_1 (Flatten)          (None, 6272)              0_________________________________________________________________dense_1 (Dense)              (None, 300)               1881900_________________________________________________________________dense_2 (Dense)              (None, 10)                3010=================================================================Total params: 2,016,622Trainable params: 2,016,622Non-trainable params: 0_________________________________________________________________In [17]: model.compile(loss='categorical_crossentropy', optimizer='sgd', metrics = ['...: acc',metrics.categorical_accuracy])# Create some fake data to match your inputs. Each label seems to be 10 
…
